lab14/cifar10_cnn.pth (torch, 252037 bytes, 10 tensors)

conv1.weight f4 [6, 3, 5, 5]
0	0x3e73d84b	0.23812978
1	0xbd1ba98f	-0.0380035
2	0xbda3e4f4	-0.08002654
3	0xbe1ebd68	-0.1550194
4	0x3df3d20c	0.11905298
5	0x3ef25107	0.47327444
6	0x3eadb3c7	0.33926222
7	0x3f0f8460	0.56061363
8	0x3ef0da06	0.4704134
9	0x3ebe9c8f	0.3722882
10	0x3e256468	0.16151583
11	0x3e54f169	0.20795216
12	0x3eceaff5	0.4036862
13	0x3eb94868	0.36188054
14	0x3e2da3f3	0.16957073
15	0xbe788e78	-0.24273098
16	0xbeb25c7e	-0.3483619
17	0xbeb2f581	-0.3495293
18	0xbee63c6a	-0.44967967
19	0xbea74202	-0.32667547
20	0xbe59b289	-0.21259512
21	0xbdfd1b3c	-0.1235871
22	0xbe48df2c	-0.19616383
23	0xbdbe3db3	-0.09289112
24	0xbe11a8fc	-0.14224619
25	0xbe7f7673	-0.24947529
26	0xbeca1011	-0.39465383
27	0xbe57e242	-0.21082404
28	0xbecca6ef	-0.3997111
29	0xbdc2adf7	-0.095058374
30	0x3d9bda73	0.07610025
31	0x3e03654f	0.12831615
32	0x3eb9b213	0.36268672
33	0x3dfdc642	0.1239133
34	0x3e5bcb2e	0.21464226
35	0x3b9dab05	0.004811647
36	0x3e28d90f	0.16489051
37	0x3eb87c3e	0.3603229
38	0x3eafc2b3	0.3432823
39	0x3c63de9c	0.013908055
40	0xbe4a6277	-0.19764124
41	0xbe73c093	-0.2380393
42	0xbee13d06	-0.4399187
43	0xbf0bf01b	-0.54663247
44	0xbed9d01f	-0.42541596
45	0x3d2e85d7	0.04260811
46	0xbe2192e6	-0.15778694
47	0xbe977d14	-0.29587615
48	0xbd5211c0	-0.05128646
49	0x3cbc5305	0.022988806
50	0xbe361edd	-0.17785211
51	0xbecee174	-0.40406382
52	0xbe4677a0	-0.19381571
53	0xbe93a0de	-0.2883367
54	0xbd248d10	-0.04017359
55	0x3d915025	0.070953645
56	0x3e1f62ad	0.15564986
57	0x3e3b4745	0.18288906
58	0x3e51b2a6	0.20478305
59	0x3e10c3e4	0.14137226
60	0x3de999c5	0.11406282
61	0x3e7fbede	0.24975154
62	0x3e8e3ae8	0.27779317
63	0x3eb23ef8	0.34813666
64	0x3dbaa1a1	0.091128595
65	0xbe07f842	-0.13278297
66	0x3c1135f4	0.008862961
67	0xbde38ae8	-0.11110479
68	0xbe927a05	-0.2860872
69	0xbe337850	-0.17526364
70	0x3e92e4a9	0.2869008
71	0x3e0ebaaa	0.13938394
72	0x3d6d47f2	0.05792994
73	0x3e8a6d40	0.27036476
74	0x3e75bca1	0.23997737
75	0xbe1c35f7	-0.15254961
76	0x3d9bf116	0.07614343
77	0xbe3f0387	-0.1865369
78	0x3d339794	0.043845728
79	0x3e23d24b	0.15998189
80	0xbe453b5e	-0.19260928
81	0x3e34f2e3	0.17670779
82	0xbb30f6cb	-0.0027002569
83	0xbe97dbc3	-0.29659852
84	0x3e1317a4	0.14364487
85	0xbdd04b9d	-0.10170672
86	0x3f04ec64	0.51923203
87	0xbecda51b	-0.40165028
88	0xbef6c900	-0.48200226
89	0x3e97d12a	0.29651767
90	0x3e7540d2	0.23950508
91	0x3e94ac71	0.29037812
92	0xbf1c55f9	-0.61068684
93	0xbe5b07d3	-0.21389703
94	0x3e9ef974	0.31049693
95	0x3ce4e192	0.027939592
96	0xbd13476c	-0.035956785
97	0xbe9abb6e	-0.30221123
98	0x3cdee090	0.02720669
99	0xbd8e4e1a	-0.069484904
100	0x3e24369d	0.16036458
101	0x3e48b435	0.19599994
102	0xbe154f83	-0.14581113
103	0xbdbf9181	-0.093539245
104	0x3d0ebb2e	0.034846477
105	0x3e0c4b0e	0.13700506
106	0x3ecc9b0e	0.39962047
107	0x3ca0c6c4	0.019626029
108	0xbe2f3ce5	-0.17113073
109	0x3d481a59	0.048853252
110	0x3e3f6bb1	0.18693425
111	0x3f261141	0.6487008
112	0xbeaf286c	-0.34210527
113	0xbef583d6	-0.47952145
114	0x3eb578b4	0.35443652
115	0x3eaea5ab	0.3411077
116	0x3f0f43bd	0.55962735
117	0xbefa34ce	-0.48868412
118	0xbe3020ff	-0.17200087
119	0x3ea3efc6	0.3201887
120	0x3e64d2eb	0.22346084
121	0x3d4ce156	0.050019585
122	0xbeaf1ffc	-0.3420409
123	0x3dcc528b	0.09976681
124	0x3d8bb5d4	0.0682179
125	0xbd8518f9	-0.06498904
126	0x3d5e999e	0.05434572
127	0xbe6e2f44	-0.23260218
128	0x3c8d5bc9	0.01725568
129	0x3db7bf4a	0.08972032
130	0xbe00c568	-0.12575305
131	0x3e982a80	0.29719925
132	0xbdf974ae	-0.12180458
133	0xbe97f192	-0.2967649
134	0x3dffbef1	0.12487591
135	0xbe318b47	-0.17338286
136	0x3ec28bca	0.37997276
137	0xbe87c749	-0.2651923
138	0xbeac03fc	-0.3359679
139	0x3eaccdbb	0.3375071
140	0x3ddb731b	0.10715314
141	0x3eb7bda9	0.35886887
142	0xbeea399d	-0.4574708
143	0xbe4e3bcf	-0.20140003
144	0x3e9f93b1	0.31167367
145	0xbcc63e04	-0.024199493
146	0x3bcca6da	0.006245476
147	0xbe7b8b16	-0.24564776
148	0x3db8c2a4	0.090215
149	0xbbf1b05b	-0.0073757595
150	0xbe93c191	-0.28858617
151	0xbdd49e57	-0.103817634
152	0xbe06ca2f	-0.13163064
153	0xbd9030d5	-0.07040564
154	0xbc351688	-0.011052735
155	0xbed55907	-0.41669485
156	0xbece87b7	-0.40337917
157	0xbe6bd429	-0.23030151
158	0xbe81b451	-0.25332883
159	0xbe07803c	-0.13232511
160	0xbe94aecd	-0.29039612
161	0xbe7ae86b	-0.24502723
162	0xbe5cc08e	-0.21557829
163	0xbe460589	-0.19338049
164	0xbe29d676	-0.16585717
165	0xbe83059d	-0.2559022
166	0xbe76ceeb	-0.2410237
167	0xbe4ece15	-0.20195802
168	0xbe4605bb	-0.19338124
169	0xbdbd7284	-0.09250358
170	0x3d048816	0.032356344
171	0x3c84263d	0.016131515
172	0x3ce149fe	0.027501103
173	0x3c366ea8	0.011134781
174	0xbd31f444	-0.04344584
175	0x3e19a892	0.1500571
176	0x3d495d6c	0.04916136
177	0x3e205fba	0.15661517
178	0x3ddaa4e2	0.1067598
179	0x3e3bcba2	0.18339399
180	0x3dff007a	0.12451263
181	0xbd16644c	-0.036716744
182	0x3e02a70a	0.12759033
183	0x3d291999	0.041284177
184	0x3d742721	0.05960763
185	0x3d5bbaca	0.053644933
186	0xbdb4d636	-0.0882992
187	0x3c8be441	0.017076613
188	0xbc31e0eb	-0.010856847
189	0xbbc5075a	-0.0060128393
190	0xbc9e1d3a	-0.019301046
191	0x3dc51a38	0.096241415
192	0xbd50c077	-0.0509648
193	0xbcbab67c	-0.022792093
194	0x3d9b1db8	0.07574028
195	0x3e0f62be	0.14002511
196	0x3e225d48	0.15855896
197	0x3d9abf5f	0.075560324
198	0x3cf81034	0.030281164
199	0xbde275e9	-0.11057646
200	0x3e272a61	0.1632476
201	0x3e930041	0.2871113
202	0x3e9ee86c	0.310367
203	0x3e7efbef	0.24900793
204	0x3e2dca2d	0.16971655
205	0x3e4713f4	0.19441205
206	0x3e26ba61	0.16282035
207	0x3e8e3dac	0.27781427
208	0x3e6ec48c	0.23317164
209	0x3e02df81	0.12780572
210	0x3e01fdfd	0.12694545
211	0x3e4a1391	0.19734026
212	0x3d7e6e21	0.062116746
213	0x3dc54004	0.09631351
214	0x3e3c11b0	0.18366122
215	0x3e2cec30	0.16886973
216	0x3d3d3985	0.046197433
217	0x3d72c6ca	0.05927161
218	0x3ce5e75e	0.028064426
219	0x3c5a274f	0.013315036
220	0x3defaca4	0.117028505
221	0x3e3c5361	0.18391182
222	0x3de17d65	0.11010245
223	0x3e3d6e6d	0.18499155
224	0x3d4b963c	0.04970382
225	0xbc5d8336	-0.013520053
226	0x3c37d846	0.011220997
227	0xbd7e1a28	-0.062036663
228	0xbe14ba24	-0.14524132
229	0xbdf240dd	-0.11828778
230	0x3d75d6b4	0.06001921
231	0x3d3b778c	0.045768306
232	0xbcb17bd4	-0.021665491
233	0xbdc35ae7	-0.095388226
234	0xbd626fc4	-0.05528237
235	0x3d08abe8	0.033367068
236	0xbd28505e	-0.04109227
237	0x3d959a0f	0.07304775
238	0x3d5c7d07	0.053830173
239	0xbd7346cf	-0.0593937
240	0x3db9db42	0.09075023
241	0x3e089955	0.13339742
242	0x3d724418	0.05914697
243	0x3dc8589d	0.09782527
244	0xbbc14b6d	-0.005898884
245	0xbcbfc70d	-0.023410344
246	0x3de01cbd	0.109429814
247	0x3dfae4d5	0.122506775
248	0x3e24b2c6	0.16083822
249	0xbd4241eb	-0.047426146
250	0x3c8f8ce3	0.017523235
251	0x3d47a3d7	0.048740234
252	0xbd445e65	-0.047941584
253	0xbd1e9203	-0.038713466
254	0xbe0547cf	-0.13015674
255	0xbb6d9357	-0.0036251151

conv1.bias f4 [6]
0	0xbf10ece1	-0.5661145
1	0xbd516e37	-0.0511305
2	0x3e9a8db0	0.30186224
3	0x3db6d966	0.08928184
4	0xbe6f6c1e	-0.23381087
5	0x3dbac708	0.091199934

conv2.weight f4 [16, 6, 5, 5]
0	0xbd02c0a5	-0.031922
1	0xbd6945d5	-0.056951363
2	0xbe185aa2	-0.14878324
3	0xbcd421a6	-0.025894951
4	0xbcc944cc	-0.024568938
5	0xbe3bf303	-0.1835442
6	0xbdf7d3f0	-0.12100971
7	0xbd8d13b7	-0.06888526
8	0xbd49d0da	-0.049271442
9	0x3b923a31	0.0044625034
10	0xbe51bd71	-0.20482422
11	0xbd59ab0e	-0.053141646
12	0xbd9820a6	-0.07428102
13	0xbd20bf59	-0.039244983
14	0x3d6d76fb	0.057974797
15	0xbe27a8f9	-0.16373052
16	0xbe32b9bc	-0.17453665
17	0xbdaf8860	-0.08570933
18	0xbd25ef74	-0.040511563
19	0xbd8f1321	-0.069860704
20	0xbdf5b59d	-0.119975306
21	0xbe2b3c74	-0.1672228
22	0xbe1f7b4f	-0.15574382
23	0xbbc5fd9a	-0.0060421946
24	0xbdb4bebf	-0.088254444
25	0x3dc767e0	0.097366095
26	0x3d91ffa9	0.071288414
27	0xbe42c5f8	-0.19020832
28	0xbe36c206	-0.17847452
29	0x3d2b634b	0.04184274
30	0x3dbaa193	0.09112849
31	0xbe021311	-0.12702586
32	0xbd44b1fb	-0.048021298
33	0xbda3a42a	-0.07990296
34	0xbc75d9b4	-0.015005518
35	0xbe37fa7b	-0.17966644
36	0xbe61f0f7	-0.22064577
37	0xbd31549d	-0.043293584
38	0x3c9d41f1	0.019196482
39	0xbd368e0a	-0.044569053
40	0xbe34a9ab	-0.17642848
41	0xbe0e361f	-0.13887833
42	0xbd74a14e	-0.059724145
43	0xbc4c784a	-0.012479851
44	0xbbf57ed4	-0.0074919257
45	0xbe38a048	-0.18029892
46	0xbe5edc46	-0.21763715
47	0xbe06715c	-0.1312918
48	0xbd945e17	-0.07244509
49	0x3c2eea11	0.010675923
50	0xbdaff3cf	-0.08591425
51	0xbdde46d8	-0.10853356
52	0xbdfb8d55	-0.12282816
53	0xbe2b4a22	-0.16727498
54	0xbcba2e36	-0.022727113
55	0x3d22a8fd	0.03971194
56	0xbdf7f0f4	-0.12106505
57	0xbe232e02	-0.1593552
58	0xbd4ed1de	-0.050493114
59	0xbcece763	-0.028918928
60	0xbca68292	-0.020325933
61	0xbdc68919	-0.09694118
62	0xbdca6a05	-0.09883503
63	0x3d1e3a61	0.038629893
64	0x3e0905e5	0.13381155
65	0x3c59ac6c	0.0132857375
66	0xbd9568bc	-0.07295367
67	0x3ce715e4	0.02820868
68	0x3e11b6ba	0.14229861
69	0x3e1aa30e	0.15101263
70	0x3cc54acf	0.024083523
71	0x3de47995	0.111560024
72	0xbca0ee5e	-0.019644912
73	0x3d11f45e	0.035633437
74	0x3cf22791	0.029559882
75	0xbd3a8a37	-0.04554197
76	0xbe4db02c	-0.20086735
77	0xbe3a37eb	-0.18185394
78	0xbdad5ec7	-0.08465343
79	0xbd138386	-0.036014102
80	0xbd7d02bb	-0.061770182
81	0xbe1ef808	-0.15524304
82	0x3cc82a64	0.024434276
83	0x3c5a4ffc	0.013324734
84	0xbc7b79ca	-0.015348861
85	0xbe1c1b26	-0.15244731
86	0xbdaf1448	-0.0854879
87	0x3d3ee650	0.046606362
88	0xbd937ef9	-0.072019525
89	0xbbd3bb30	-0.0064615235
90	0x3d275ecf	0.0408619
91	0x3d745060	0.059646964
92	0xbcb00b01	-0.021489622
93	0x3cec796e	0.028866496
94	0xbd0ae272	-0.03390736
95	0x3d4a89b9	0.04944775
96	0x3b063141	0.0020476135
97	0xbcc136f0	-0.023585767
98	0x3dcd338e	0.10019599
99	0x3dc4975f	0.09599184
100	0x3d803c31	0.062614806
101	0x3e6ffbf7	0.2343596
102	0x3ead6a3f	0.33870122
103	0x3d1a6817	0.037696924
104	0x3de23bc1	0.110465534
105	0x3e02d129	0.12775101
106	0x3e8d70ec	0.27625215
107	0xbd16af35	-0.036788184
108	0xbd83d130	-0.06436384
109	0xbd0678cd	-0.03283005
110	0x3e1bf9a3	0.15231948
111	0x3d9fc873	0.078019045
112	0xbda3dcdb	-0.08001109
113	0x3cd055f5	0.025431613
114	0x3bd9ecb0	0.00665053
115	0x3e0e5e24	0.139031
116	0x3c6aeedc	0.014339175
117	0x3c572dff	0.013133525
118	0xbd89f12f	-0.06735455
119	0xbc996fe2	-0.018730108
120	0x3e07d575	0.13265021
121	0x3d744760	0.05963838
122	0x3c0c2cfc	0.008555647
123	0xbccf7cc3	-0.025328046
124	0xbdbaa290	-0.091130376
125	0xbe195cec	-0.14976853
126	0xbda8ad17	-0.08236139
127	0x3de69b89	0.11260135
128	0x3e5a47c8	0.21316445
129	0x3e0be78a	0.13662544
130	0xbd7dc953	-0.061959576
131	0x3db5c096	0.088746235
132	0x3e32df08	0.17467892
133	0x3d97e349	0.07416398
134	0xbd7466f5	-0.0596685
135	0x3c1d2fa1	0.009593875
136	0x3d6f30b4	0.058396056
137	0x3cdb58c4	0.026775725
138	0x3b83bea4	0.004020529
139	0x3d434251	0.047670666
140	0x3daa7ca8	0.083245575
141	0x3ca11f97	0.019668384
142	0x3cc5c1d2	0.024140272
143	0xbd28f63f	-0.041250464
144	0x3d469e50	0.048490822
145	0x3d232229	0.0398275
146	0x3e006e84	0.12542158
147	0x3de9e4af	0.11420571
148	0x3cf967bb	0.03044497
149	0x3dd9b803	0.106308006
150	0xbd2575f7	-0.040395703
151	0x3a56a3cb	0.0008187859
152	0xbce30429	-0.027711945
153	0xbdab344c	-0.08359584
154	0x3df1c393	0.11804881
155	0xbda6b748	-0.08140427
156	0xbd864598	-0.06556243
157	0xbd0f17f1	-0.03493494
158	0xbd6783e8	-0.05652228
159	0x3c188192	0.009308236
160	0xbd8a4a79	-0.06752486
161	0x3daf9aab	0.085744224
162	0x3e33a6e9	0.1754414
163	0xbc9381fc	-0.018006317
164	0xbce4c298	-0.02792482
165	0x3d091074	0.033462957
166	0x3e10c44e	0.14137384
167	0x3e3e765f	0.18599842
168	0x3cc4c031	0.024017425
169	0xbd3968db	-0.045266014
170	0xbe062194	-0.13098747
171	0x3c9a8f9a	0.018867303
172	0xbdf36dcf	-0.11886179
173	0xbe1193db	-0.14216559
174	0xbe39139f	-0.18073891
175	0xbc815f21	-0.015792431
176	0x3d1d6f31	0.03843612
177	0xbd3fcb49	-0.046824727
178	0x3e2905e1	0.16506149
179	0x3e5e2677	0.2169436
180	0x3e11df09	0.14245237
181	0x3c64dc6c	0.013968568
182	0x3c875bc6	0.016523253
183	0x3e7a093a	0.24417582
184	0x3e2b0dfb	0.16704552
185	0x3dc0467b	0.09388443
186	0xbcacd418	-0.021097228
187	0xbd1842e3	-0.037173163
188	0x3e04ae68	0.12957156
189	0x3d27c111	0.040955607
190	0xbdb79685	-0.08964256
191	0xbdfe1ba1	-0.124076135
192	0xbe32a8ce	-0.17447206
193	0xbe2736b6	-0.16329464
194	0xbe13dc02	-0.14439395
195	0xbe0adffc	-0.13562006
196	0xbe2a5780	-0.16634941
197	0xbe3e1f4b	-0.18566625
198	0xbe8cdfd5	-0.2751452
199	0xbe94fc86	-0.2909891
200	0x3bbdfe8f	0.005798168
201	0x3d6ad6c2	0.057333715
202	0x3df5368b	0.11973294
203	0x3d636b4d	0.055522252
204	0x3e364af2	0.17802027
205	0xbd1dc26c	-0.038515493
206	0x3cda3f6b	0.026641568
207	0x3bdb782a	0.0066976743
208	0xbd5d4090	-0.05401665
209	0xbda6f01e	-0.081512675
210	0xbd56dc97	-0.052456465
211	0x3b9895f7	0.004656549
212	0xbbc8a563	-0.0061232313
213	0xbd5aa983	-0.053384315
214	0xbd2960c3	-0.041352045
215	0x3c98c167	0.018646909
216	0xbcf8d729	-0.030376034
217	0x3d3351ae	0.043779068
218	0xbd361078	-0.0444493
219	0xbd980941	-0.0742364
220	0xbe081a69	-0.13291325
221	0xbe132888	-0.1437093
222	0xbd052df2	-0.03251452
223	0x3cc3566d	0.023844922
224	0xbd6adece	-0.05734139
225	0xbdee1664	-0.116253644
226	0x3d411b69	0.04714528
227	0x3d32c089	0.043640647
228	0x3b801cea	0.003909697
229	0xbdc9915c	-0.09842178
230	0xbd70c8f0	-0.05878538
231	0x3c9a83be	0.018861648
232	0xbd8f4b99	-0.06996841
233	0xbd563bb7	-0.052303042
234	0xbde381e2	-0.111087576
235	0xbd64ae78	-0.05583045
236	0xbde5305a	-0.11190863
237	0xbae31af5	-0.0017326759
238	0xbb3a1eb2	-0.0028399643
239	0x3c5cf75b	0.0134867085
240	0xbce4d2cd	-0.027932549
241	0x3d9e0de0	0.0771749
242	0xbba56691	-0.0050476273
243	0xbc53648a	-0.012902388
244	0xbd27be4b	-0.040952962
245	0x3ce8a1f9	0.028397547
246	0x3dae3aca	0.08507307
247	0x3cf67d1d	0.030088956
248	0x3cfc20fe	0.03077745
249	0x3cf1f110	0.029533893
250	0x3ea321e5	0.31861797
251	0x3db6963a	0.08915372
252	0x3d7d9a07	0.06191447
253	0x3cf45467	0.029825402
254	0x3e83c748	0.25737977
255	0x3e2176b7	0.15767942

conv2.bias f4 [16]
0	0x3d6f74c4	0.058460966
1	0xbd9dc766	-0.07704048
2	0xbf25a38c	-0.6470268
3	0x3d3f53c3	0.04671074
4	0xbec8e86d	-0.39239827
5	0x3e9a8a8d	0.3018383
6	0xbd9bf359	-0.07614774
7	0x3e4315d1	0.19051291
8	0xbe9a9576	-0.30192155
9	0xbdb6cd80	-0.08925915
10	0x3e7f38e6	0.24924049
11	0x3e8ccee4	0.27501595
12	0x3dab5313	0.083654545
13	0x3f77b016	0.9675306
14	0xbf109252	-0.5647327
15	0xbe13f9e3	-0.14450793

fc1.weight f4 [120, 400]
0	0xbaa8bfd3	-0.0012874551
1	0x3d58213c	0.05276607
2	0x3d466fe8	0.048446566
3	0x3c1356e5	0.008992885
4	0xbcb1c753	-0.02170149
5	0x3d49e3f8	0.049289674
6	0x3d847ea0	0.06469464
7	0xbb33941a	-0.0027401508
8	0xbcb802af	-0.022462217
9	0xbcef58e4	-0.029217191
10	0x3bd75843	0.006571801
11	0xbc29d66a	-0.010366062
12	0x3d36c5e2	0.04462231
13	0xbc89986a	-0.01679631
14	0xbbb156ed	-0.0054119737
15	0xbad441ff	-0.0016193985
16	0xbc86bf95	-0.016448775
17	0xbca14774	-0.019687392
18	0xbd8ca9fd	-0.0686836
19	0xbd775467	-0.060383227
20	0xbd36ea6e	-0.044657163
21	0xbcfd5c43	-0.030927783
22	0xbd3e285a	-0.0464252
23	0xbd748dfe	-0.059705727
24	0xbce1b0b0	-0.027550071
25	0xbd40e540	-0.04709363
26	0xbd87e699	-0.0663578
27	0x3cd686d8	0.026187345
28	0x3c6926d3	0.014230448
29	0x3c4ec648	0.012620516
30	0x3cc92fd5	0.02455894
31	0xbd2181c7	-0.039430406
32	0x3d29d9ae	0.04146736
33	0x3c6f9966	0.014623975
34	0xbc8982a3	-0.016785925
35	0x3d20ce8d	0.039259482
36	0x3d0bce53	0.034132313
37	0x3cb87f1a	0.022521544
38	0x3b9fc721	0.004876033
39	0xbd4acd2e	-0.04951208
40	0x3d27189b	0.04079495
41	0x3d1bc343	0.038028013
42	0xbcdfafec	-0.027305566
43	0xbc2fc2f1	-0.01072763
44	0xbc43867e	-0.011933921
45	0x3cf6b72c	0.03011664
46	0xbcdedf6a	-0.027206142
47	0x3c3c9810	0.011510864
48	0xbcc87207	-0.024468435
49	0x3d232e23	0.03983892
50	0x3c64eb00	0.013972044
51	0xba9dfb03	-0.0012052957
52	0xbd8d77f0	-0.06907642
53	0xbc803800	-0.015651703
54	0x3be910c0	0.0071125925
55	0xbb3d993e	-0.002893045
56	0xbd15b626	-0.036550663
57	0xbcfa2c80	-0.030538797
58	0xbd671850	-0.05641967
59	0xbcb264c1	-0.021776559
60	0xbd72ad1c	-0.05924712
61	0x3cd9d635	0.0265914
62	0xbc2236d3	-0.009900766
63	0xbca11066	-0.01966114
64	0x3c9d7c71	0.019224377
65	0xbc87f944	-0.016598351
66	0xbcb1748d	-0.021662021
67	0x3d326a3d	0.043558348
68	0x3d3c3f3a	0.045958735
69	0xbd4ee817	-0.050514307
70	0xbd24f1e4	-0.040269747
71	0xbd14c72c	-0.036322758
72	0x3bff2c60	0.0077872723
73	0xbd035bfc	-0.032070145
74	0xbd8a2c54	-0.06746736
75	0xbbe36319	-0.0069393036
76	0x3db5f4b7	0.08884566
77	0x3cdefe15	0.027220765
78	0x3d11070e	0.03540712
79	0xb7e8a532	-2.773348e-05
80	0x3d81f4f2	0.06345548
81	0x3d93c1a8	0.072146714
82	0x3af1b07f	0.0018439441
83	0x3d05b31f	0.032641526
84	0xbca828c7	-0.020527257
85	0x3c8b5e48	0.01701273
86	0xbc4b7766	-0.0124186035
87	0x3ce90f16	0.028449576
88	0xbc4751f2	-0.012165533
89	0xbc5e9898	-0.013586186
90	0x3d1ec0c8	0.03875807
91	0xbc9c6bdb	-0.019094398
92	0x3d30a007	0.043121364
93	0x3d1e7623	0.038686883
94	0x3c8a5faa	0.01689132
95	0x3d8f7127	0.07004004
96	0x3cfa9850	0.030590206
97	0x3d870c76	0.065941736
98	0xbc45fa10	-0.012083545
99	0x3d270239	0.040773604
100	0x3d238fa5	0.039931912
101	0xbc0f8799	-0.008760356
102	0xbd5e66f2	-0.054297395
103	0xbc1f78ed	-0.009733421
104	0xbd8aea12	-0.067829266
105	0xbc54a2bb	-0.012978251
106	0x3caef4b9	0.021356927
107	0xbd3b7b42	-0.045771845
108	0xbcfbcfd3	-0.030738747
109	0xbccab4fc	-0.024744503
110	0xbc36d18e	-0.01115836
111	0x3be2e2d2	0.0069240117
112	0xb785aae4	-1.5934413e-05
113	0xbd602a73	-0.054727983
114	0x3bce87ba	0.006302801
115	0x3c0e8431	0.008698509
116	0xbcbfc2b4	-0.023408271
117	0xbcd9bd95	-0.026579658
118	0x3caa0c06	0.020757686
119	0xbcba5fd2	-0.022750769
120	0xbbc82da1	-0.006108955
121	0xbc1c63e1	-0.009545297
122	0x3ca6a274	0.020341136
123	0x3cfeadd6	0.03108875
124	0xbd28dd13	-0.041226458
125	0x3be86dde	0.0070931753
126	0xbc961ef9	-0.018325316
127	0xbc0da879	-0.008646124
128	0xbc4a7e23	-0.012359175
129	0x3d5380c6	0.05163648
130	0x3d28850c	0.04114251
131	0x3d1b6ac8	0.03794363
132	0x3d0c1bf6	0.034206353
133	0x3d038831	0.032112304
134	0x3d7e0264	0.062014
135	0x3c73ea2e	0.014887376
136	0xbc337bae	-0.0109547805
137	0x3d298814	0.04138954
138	0x3d34d648	0.044149667
139	0x3c9c444c	0.019075535
140	0x3cb15286	0.021645796
141	0x3c4a3b58	0.01234325
142	0x3c94beb3	0.018157339
143	0x3cd66f35	0.026176075
144	0x3d6ffade	0.058588855
145	0x3d2fa108	0.04287818
146	0x3c1ce61e	0.009576349
147	0x3cd4d2fd	0.025979513
148	0x3d28b1b3	0.041185092
149	0x3d62281a	0.055214025
150	0xbd663a40	-0.056207895
151	0xb91cca82	-0.0001495276
152	0x3bdb31fc	0.006689308
153	0xbd38b6ee	-0.04509633
154	0xbd27b794	-0.040946558
155	0xbd4eb157	-0.050462093
156	0xbbedf0d4	-0.007261375
157	0xbcefff81	-0.029296638
158	0xbd4baf37	-0.049727645
159	0xbd7a5c48	-0.061123163
160	0xbd04bd68	-0.032407194
161	0xbd3e712b	-0.046494644
162	0xbcdeca0d	-0.027195955
163	0x3c21350b	0.009839307
164	0xbc9b1373	-0.018930173
165	0xbcfdff05	-0.031005392
166	0xbb09735a	-0.0020973296
167	0x3ca4aeea	0.020102937
168	0xbd0d4924	-0.03449358
169	0xbd779642	-0.06044603
170	0x3d04806d	0.03234904
171	0xbcf7b348	-0.030236855
172	0xbd29e574	-0.04147859
173	0x3cd7e1e7	0.026352836
174	0xbca97614	-0.020686187
175	0x3d93a28f	0.0720874
176	0x3d975117	0.073885135
177	0x3c5ac0db	0.013351644
178	0x3cf75d5f	0.03019589
179	0x3d785270	0.060625494
180	0x3d91e3eb	0.0712355
181	0xbc27e441	-0.010247291
182	0xbcdc90c6	-0.026924502
183	0x3ce57e1a	0.028014231
184	0xbbc7b23c	-0.0060942452
185	0x3d24b4c2	0.040211447
186	0x3d2394a9	0.039936695
187	0xbd013f56	-0.031554542
188	0xbcc9d9df	-0.024640022
189	0x3ae118cd	0.0017173529
190	0x3d9866a9	0.07441456
191	0x3d9896e3	0.07450654
192	0xbcbb55a1	-0.02286798
193	0x3d35b4b7	0.044361796
194	0x3d5e9cca	0.054348744
195	0x3cc7ec80	0.024404764
196	0x3cae06b9	0.02124344
197	0xbb4edb08	-0.0031563658
198	0xbcccf2ef	-0.025018184
199	0x3d313ac1	0.043268923
200	0xbd5e0fb2	-0.054214187
201	0x3c69164e	0.014226509
202	0xbd4a1ac6	-0.04934194
203	0xbd8a6d69	-0.067591496
204	0xbddf29e2	-0.108966604
205	0x3c647fad	0.013946456
206	0x3c13063a	0.0089736525
207	0xbc86d68c	-0.016459726
208	0xbd44b543	-0.048024427
209	0xbd341d6b	-0.043973368
210	0xbd484d8c	-0.04890208
211	0xbcb381a3	-0.021912402
212	0xbbf33828	-0.007422466
213	0x3cc39438	0.023874387
214	0xbc4412e3	-0.011967394
215	0x3d1d4dc7	0.038404252
216	0x3c97d627	0.018534733
217	0xbccb0635	-0.024783233
218	0xbd4223ec	-0.04739754
219	0xbcfb4eed	-0.030677283
220	0xbcfaa269	-0.030595021
221	0xbd35cef5	-0.044386823
222	0xbcbc8cf3	-0.023016429
223	0xbd0736a6	-0.0330111
224	0xbd62a8d3	-0.055336785
225	0x3d7ec6f7	0.062201466
226	0x3c78f411	0.015194909
227	0xbd109ee7	-0.03530779
228	0x3d0cd52d	0.034382988
229	0xbb806cd7	-0.0039192247
230	0x3dcea986	0.10090928
231	0x3c084157	0.0083163595
232	0xbb0e1af8	-0.0021683555
233	0x3c2c8de0	0.0105318725
234	0xbd055c1d	-0.03255855
235	0x3da20361	0.07910801
236	0x3d97b750	0.07408011
237	0x3d1319fc	0.035913453
238	0x3d4ac40e	0.04950338
239	0xbd82112b	-0.06350931
240	0x3d78c73e	0.060736887
241	0x3d664a60	0.056223273
242	0x3db5f031	0.088837035
243	0xbcbaff88	-0.022826925
244	0xbb7605da	-0.003754011
245	0x3c597160	0.01327166
246	0xbd460662	-0.04834593
247	0xbbc941fb	-0.0061418987
248	0xbbe5924f	-0.0070059667
249	0x3d2a3cba	0.04156182
250	0x3b5e13c0	0.0033886284
251	0xbcc64d78	-0.024206862
252	0x3d08bc3a	0.03338263
253	0x3c6108aa	0.013734976
254	0xbb6b2c33	-0.00358845
255	0xbc983151	-0.018578203

fc1.bias f4 [120]
0	0x3d7edada	0.062220432
1	0xbb696f14	-0.0035619186
2	0x3c854c3d	0.016271705
3	0x3dd3abea	0.103355244
4	0xbd226be3	-0.03965367
5	0xbc9d0d0a	-0.019171257
6	0x3e511e65	0.20421751
7	0x3b01e827	0.0019822211
8	0xbdfdff1f	-0.12402176
9	0x3d5b654f	0.053563412
10	0x3cbfa660	0.023394763
11	0x3da5dc64	0.08098677
12	0xbda7c251	-0.0819136
13	0xbce6ac96	-0.028158467
14	0xbcf87d36	-0.030333143
15	0x3e351e0e	0.17687246
16	0x3d75737e	0.059924595
17	0x3d949401	0.07254792
18	0xbdbb6c8f	-0.09151565
19	0x3d644f39	0.055739615
20	0x3d83d9e9	0.064380474
21	0xbd6fe68e	-0.058569483
22	0xbc7a4d82	-0.015277268
23	0x3e5e5ceb	0.21715133
24	0x3e000653	0.12502412
25	0xbdacc395	-0.08435742
26	0x3d33d938	0.043908328
27	0xbd3ad1e9	-0.045610342
28	0x3d3ed11d	0.046586145
29	0xbdd87133	-0.10568466
30	0x3cfa3126	0.030541014
31	0xbd8b3b37	-0.06798404
32	0x3b319b13	0.0027100488
33	0x3d6ab8c9	0.05730513
34	0x3d548cd2	0.05189211
35	0xbc003e32	-0.0078273285
36	0x3e634c4e	0.22197077
37	0x3d1dec52	0.03855545
38	0x3cf38592	0.029726777
39	0xbe3ed968	-0.18637621
40	0x3d9e5d7a	0.07732673
41	0xbc9fdb28	-0.019513682
42	0xbdedc0c6	-0.11609034
43	0x3e50565f	0.20345448
44	0xbc8e49ba	-0.01736914
45	0xbe4caee9	-0.19988598
46	0xbdd38ca3	-0.10329559
47	0x3d5ed197	0.0543991
48	0x3daa3676	0.08311169
49	0xbc3f3f8b	-0.011672865
50	0xbe155e93	-0.14586858
51	0x3cf08ac1	0.029363038
52	0x3db8a263	0.09015348
53	0xbd3b6860	-0.045753837
54	0x3d4680d9	0.048462722
55	0xbb71c35b	-0.0036890123
56	0x3d0fd5f7	0.035116162
57	0xbd1d9c51	-0.038479153
58	0xbd90b3d2	-0.07065548
59	0x3e1d8b52	0.15385178
60	0x3b3a681b	0.00284434
61	0xbd6b2d5f	-0.057416316
62	0x3c770e44	0.015079085
63	0xba0de26b	-0.0005412462
64	0xbe3dfd36	-0.18553624
65	0xbcee7dfb	-0.029112807
66	0x3c962024	0.018325873
67	0xbd1dd926	-0.038537167
68	0x3d563133	0.052293014
69	0x3c8b114c	0.016976021
70	0xbd93e56b	-0.072214924
71	0xbcadc54e	-0.021212246
72	0xbbeed5d6	-0.007288675
73	0xbda51dce	-0.080623254
74	0xbdb65837	-0.089035444
75	0xbc8ada36	-0.016949754
76	0xbd8758c7	-0.0660873
77	0x3d153ac8	0.03643301
78	0xbd177988	-0.036981136
79	0x3d6d88fe	0.057991974
80	0xbe00c125	-0.12573679
81	0xbc68b0f8	-0.014202349
82	0x3d992cc3	0.07479241
83	0xbb2cee05	-0.0026386988
84	0xbce72a1c	-0.028218322
85	0xbc593f38	-0.013259701
86	0xbcf13c24	-0.029447623
87	0xbc316558	-0.010827385
88	0x3dcdcf00	0.10049248
89	0xbd2bd462	-0.04195059
90	0x3d46b9a9	0.048516903
91	0xbdcc78c4	-0.09983972
92	0x3cc729a1	0.024311842
93	0x3d248c78	0.040173024
94	0x3d93ae65	0.072109975
95	0xbd033146	-0.032029413
96	0x3cd2dea0	0.025740921
97	0x3c5e398a	0.013563523
98	0x3e9b60ea	0.30347377
99	0x3cb1c50f	0.02170041
100	0xbc78de1b	-0.015189673
101	0x3dfaee70	0.122525096
102	0xbbae9d1b	-0.005328787
103	0xbd56a431	-0.05240268
104	0x3e2de83b	0.1698312
105	0xbd12e37c	-0.035861477
106	0x3d5b30eb	0.05351345
107	0x3cde8337	0.027162177
108	0xbbdd2b41	-0.006749541
109	0xbe4d1ea8	-0.20031226
110	0xbcb77ba4	-0.022397824
111	0xbe273940	-0.16330433
112	0xbb647048	-0.0034856964
113	0x3dce0c3c	0.10060927
114	0x3d97a2dd	0.074041106
115	0x3d411b17	0.047144976
116	0x3e4fdac0	0.2029829
117	0x3d952ecf	0.07284319
118	0x3e2a9cbf	0.16661356
119	0x3cbe2036	0.023208719

fc2.weight f4 [84, 120]
0	0x3d7004b5	0.05859824
1	0x3d70e9e7	0.058816817
2	0xbd019e09	-0.031644855
3	0xbcf3fbed	-0.029783214
4	0x3d9049ea	0.07045348
5	0x3d9b33be	0.075782284
6	0xbd26da69	-0.040735636
7	0x3c8bf52a	0.017084677
8	0x3d737b63	0.059443843
9	0x3d73ff64	0.05956973
10	0x3d9e21af	0.077212684
11	0xbd7390ac	-0.05946414
12	0xbd868373	-0.06568041
13	0x3db3fe3e	0.08788727
14	0xbd05c826	-0.03266158
15	0xbcadc459	-0.02121179
16	0x3cf4c771	0.029880257
17	0xbd966bfe	-0.073448166
18	0x3d9f09a0	0.07765508
19	0x3ce91abe	0.028455134
20	0x3d971dd4	0.07378736
21	0xbcc76270	-0.02433893
22	0x3d420d0e	0.04737573
23	0xbd9a38f7	-0.075303964
24	0xbc56eda7	-0.013118184
25	0x3d0d32d5	0.034472305
26	0x3d503656	0.05083307
27	0x38c16eb2	9.223576e-05
28	0x3d4a0bd5	0.04932769
29	0xbd3d2f0b	-0.04618744
30	0xb8d42b84	-0.00010117053
31	0x3d80df69	0.06292612
32	0xbd804a54	-0.06264177
33	0xbd4c652c	-0.049901173
34	0x3dcba0f4	0.09942809
35	0x3c73a809	0.014871606
36	0xbd852923	-0.06501987
37	0xbdceef30	-0.10104215
38	0xbc7326b0	-0.014840767
39	0xbd640da3	-0.055677067
40	0xbde6f6a1	-0.112775095
41	0x3d0eec16	0.034893118
42	0xbdacc83d	-0.0843663
43	0xbe02654f	-0.12733959
44	0x3daef35d	0.085425116
45	0x3d001214	0.03126724
46	0x3be404fd	0.0069586025
47	0x3dc65d0f	0.09685718
48	0xbd876ac4	-0.06612161
49	0xbd888dee	-0.06667696
50	0x3c9570c0	0.01824224
51	0x3a24fcb7	0.0006293761
52	0xbdcc8da6	-0.09987955
53	0xbd56c27d	-0.052431572
54	0x3db5909c	0.08865473
55	0xbcfd38ff	-0.030910967
56	0x3cfb262e	0.030657854
57	0x3d2281c3	0.03967453
58	0x3c8ebbf1	0.017423602
59	0x3d53caa4	0.051706925
60	0xbd6ec3ea	-0.058292307
61	0x3d921938	0.07133716
62	0xbdb7bc60	-0.089714766
63	0xbcee569b	-0.029094031
64	0x3c2a390a	0.010389576
65	0x3dc588ea	0.09645255
66	0x3d230269	0.03979722
67	0x3cdb713f	0.026787398
68	0x3d02032b	0.031741302
69	0x3dbf5094	0.09341541
70	0x3d8d6fd3	0.069060944
71	0x3d18e8fc	0.037331566
72	0xbc93b03c	-0.018028371
73	0xbd4aca09	-0.049509082
74	0x3d860bb8	0.06545204
75	0x3c9767ba	0.018482078
76	0xbd8b19a2	-0.067919984
77	0x3d031718	0.032004446
78	0xbdad02d4	-0.08447805
79	0x3d55f2a8	0.05223337
80	0xbbc60cd9	-0.006044012
81	0xbdbcd051	-0.09219421
82	0xbb2207bb	-0.0024723846
83	0xbdad4cd4	-0.084619194
84	0xbcd07872	-0.025448058
85	0xbdf20d16	-0.11818902
86	0xbd189f42	-0.037261255
87	0x3d356b2c	0.04429166
88	0xbd55b904	-0.052178398
89	0x3da44dbc	0.08022639
90	0x3c94d172	0.018166278
91	0x3c81e18c	0.01585462
92	0x3e238762	0.15969613
93	0x3d1f73ac	0.038928673
94	0x3cf78441	0.03021443
95	0xbd9a9ced	-0.075494625
96	0x3dbc9deb	0.09209808
97	0xbc8eb215	-0.0174189
98	0xbd397403	-0.045276653
99	0xbc7d9670	-0.015477762
100	0xbd664fd1	-0.056228463
101	0xbda36aef	-0.0797938
102	0xbd7fd44f	-0.062458333
103	0x3d3b6a41	0.04575563
104	0xbd87b96d	-0.06627164
105	0xbdaf2406	-0.08551793
106	0xbda5c469	-0.08094103
107	0xb9fa408c	-0.00047731807
108	0x3ca36435	0.019945243
109	0x3d56deb4	0.05245848
110	0xbddbe9f7	-0.10737985
111	0x3e78e95b	0.24307768
112	0x3d75896f	0.05994552
113	0xbda87889	-0.08226115
114	0x3ca2fef9	0.019896971
115	0xbd67a060	-0.05654943
116	0xbdd1281b	-0.10212728
117	0x3d258348	0.040408403
118	0xbd8679cb	-0.06566199
119	0xbcd8c961	-0.026463212
120	0xbd3e7c5e	-0.046505325
121	0xbd8b3271	-0.0679673
122	0xbcef0ffa	-0.029182423
123	0xbccd44e1	-0.025057258
124	0x3dc74dbe	0.09731625
125	0xbd5457ee	-0.05184167
126	0xba58ce8a	-0.0008270523
127	0xbde7910e	-0.11306964
128	0x3b2b82fb	0.00261706
129	0xbd6f7004	-0.058456436
130	0x3d90c930	0.070696235
131	0x3d99b9e7	0.07506161
132	0x3b6bdd71	0.0035990144
133	0xbdbcf4c0	-0.0922637
134	0x3ba1aa22	0.0049336115
135	0xbd6775c2	-0.056508787
136	0xbda017bf	-0.07817029
137	0x3d460e05	0.048353214
138	0xbd4491dc	-0.047990665
139	0xbd808ece	-0.06277238
140	0xbc885913	-0.016644036
141	0x3b80dee9	0.003932823
142	0xbd279648	-0.040914804
143	0xbd437a3c	-0.047723994
144	0xbd47ab2e	-0.048747234
145	0xbc76c345	-0.015061204
146	0x3bd06685	0.0063598775
147	0x3cdf987f	0.027294395
148	0xbd89705f	-0.06710886
149	0x3c6f7230	0.014614627
150	0xbc6d269c	-0.014474537
151	0xbd8c4709	-0.068494864
152	0x3c1da6db	0.009622301
153	0xbc978b86	-0.018499147
154	0x3d8873d9	0.06662721
155	0xbd7e5c43	-0.062099706
156	0x3d4c7bbc	0.04992269
157	0xbcea18d6	-0.028576296
158	0xbd21d2c1	-0.03950763
159	0xbd387a00	-0.045038223
160	0x3d4f6f51	0.05064327
161	0xbdbeecca	-0.09322508
162	0xbd0819ae	-0.033227615
163	0x3ce78ab1	0.028264375
164	0x3dbd8bff	0.09255218
165	0xbd7225ae	-0.059117965
166	0xbdb343aa	-0.0875314
167	0x3de1f529	0.11033089
168	0x3c16a602	0.009194853
169	0xbd4ed242	-0.050493486
170	0xbd66722d	-0.05626123
171	0x3aabf44d	0.0013119072
172	0xbc80bb5c	-0.01571434
173	0xbdfdead2	-0.12398304
174	0xbd8ba82e	-0.06819187
175	0xbbb82f56	-0.0056208773
176	0xbd41a651	-0.047277752
177	0xbd0133ff	-0.031543728
178	0xbd98f81e	-0.074691996
179	0x3d3e8a1b	0.046518426
180	0xbb13bcfa	-0.0022543059
181	0xbd10e6b3	-0.035376262
182	0xbcf3f96d	-0.029782021
183	0xbd9e654d	-0.07734165
184	0x3c7e1d4c	0.015509915
185	0x3caea571	0.021319123
186	0xbd1e208a	-0.03860525
187	0x3cbf8f1b	0.023383668
188	0x3dc68d82	0.09694959
189	0x3ca4004b	0.020019671
190	0x3d997ddb	0.07494708
191	0xbda098ce	-0.07841645
192	0x3d00654e	0.03134661
193	0x3c6aa96d	0.014322621
194	0x3d222b38	0.039591998
195	0x3dacac4c	0.084313005
196	0xbce4ee0b	-0.027945539
197	0x3d8db907	0.06920057
198	0x3d7b0d60	0.061292052
199	0xbc81f9c9	-0.015866177
200	0x3ab32ce1	0.0013669991
201	0xbd970c07	-0.07375341
202	0xbd931260	-0.07181239
203	0x3c9942c6	0.018708598
204	0xbd55bb4b	-0.05218057
205	0x3dab7924	0.08372715
206	0xbd3a5828	-0.04549423
207	0xbce90178	-0.028443083
208	0xbd92a11a	-0.07159634
209	0xbd328675	-0.04358526
210	0x3d1a4c76	0.037670575
211	0x3d77b67d	0.06047677
212	0xbca227ce	-0.019794371
213	0xbdda57a7	-0.106612496
214	0xbdb93755	-0.09043757
215	0xbd83587f	-0.06413364
216	0xbd01da47	-0.031702306
217	0x3da11001	0.07864381
218	0x3e06f737	0.13180242
219	0xbda8bc44	-0.08239034
220	0x3d1b60b9	0.03793404
221	0x3d8e395d	0.06944535
222	0xbd42616e	-0.047456197
223	0xbce2156f	-0.027598111
224	0x3d96b7f1	0.07359303
225	0x3d839db7	0.06426566
226	0xbcd6c788	-0.02621819
227	0xbd9b4e43	-0.075832866
228	0xbc639ad6	-0.013891896
229	0x3aa5ccd7	0.0012649548
230	0x3d535a26	0.051599644
231	0x3d245fb0	0.040130317
232	0xbd9800fc	-0.07422063
233	0xbd92d217	-0.07168978
234	0xbd3c08b5	-0.04590674
235	0x3d9c544e	0.07633267
236	0xbd652ee9	-0.05595294
237	0xbd3d2e38	-0.046186656
238	0x3d38ce1a	0.04511843
239	0x3c8d6a85	0.017262707
240	0x3c59b49f	0.013287692
241	0xbdb5d195	-0.08877865
242	0x3da22925	0.07918004
243	0x3dbb6490	0.0915004
244	0xb8b4f628	-8.628919e-05
245	0x3d15c12d	0.03656118
246	0xbdb1b4b7	-0.08677047
247	0x3d6a221d	0.05716144
248	0x3d8a7fc3	0.0676265
249	0xbc28691a	-0.010278964
250	0x3cd4af75	0.02596257
251	0x3d14c878	0.036323994
252	0x3d96e4b5	0.07367841
253	0xbdb9b20d	-0.090671636
254	0xbd2e6111	-0.04257304
255	0xbd770580	-0.06030798

fc2.bias f4 [84]
0	0x3d179486	0.037006877
1	0x3cd8dbd6	0.026472013
2	0xbcbcefeb	-0.02306362
3	0x3dcc0b4a	0.09963091
4	0x3e5768fe	0.21036145
5	0x3e88d0d2	0.26721817
6	0x3db35b2e	0.087576255
7	0x3e9b2d99	0.30308226
8	0x3da28317	0.0793516
9	0xbd02aba7	-0.03190198
10	0x3ca82473	0.020525193
11	0x3e8cb4b3	0.27481613
12	0x3e80c8ab	0.25153098
13	0x3e8771a1	0.2645388
14	0x3e121317	0.14265095
15	0x3e24c3f9	0.16090383
16	0x3690fb25	4.3207715e-06
17	0x3e072778	0.1319865
18	0x3e6daf18	0.23211324
19	0x3d7b98ce	0.061425023
20	0xbddf8a85	-0.109150924
21	0x3da9f84b	0.08299311
22	0x3c710436	0.014710477
23	0x3b9f52b6	0.004862155
24	0x3dcd81dd	0.10034535
25	0x3d810c91	0.06301225
26	0xba8a2934	-0.0010540844
27	0x3e9366a0	0.28789234
28	0x3af7cd5b	0.0018905805
29	0x3e10eb33	0.14152221
30	0x3e8487dd	0.25884905
31	0xbe165908	-0.146824
32	0xbda07f85	-0.078368224
33	0xbd8f7052	-0.07003845
34	0xbcad318f	-0.021141795
35	0xbdd3bb96	-0.103385136
36	0x3dd0baa8	0.10191852
37	0x3d35b6de	0.04436385
38	0xbcc7769b	-0.024348548
39	0xbdc769e6	-0.097369954
40	0x3e38c84f	0.18045162
41	0x3b40f17e	0.0029440816
42	0xbd152e1c	-0.036420926
43	0x3e558634	0.20851976
44	0xbab5b829	-0.0013864088
45	0xbe7e82c6	-0.24854574
46	0x3e24e210	0.16101861
47	0xbe0bb6d9	-0.1364397
48	0x3e6004e4	0.21876866
49	0xbdf2d655	-0.11857287
50	0xbb00efee	-0.001967426
51	0x3cdfea1b	0.02733331
52	0xbd4e41bd	-0.05035566
53	0x3de8132e	0.11331783
54	0x3e004ea3	0.12529998
55	0xbdd1f254	-0.102512985
56	0x3e91404f	0.28369376
57	0xbc88a5d6	-0.01668064
58	0x3d420523	0.04736818
59	0xbd74c537	-0.05975839
60	0xbd94e4e5	-0.07270221
61	0x3e84b15c	0.25916564
62	0x3e0a829c	0.13526386
63	0x3e8e12e2	0.2774878
64	0x3cd30a61	0.025761785
65	0xbdc169f4	-0.09444037
66	0x3cefd319	0.029275464
67	0x3e5e8845	0.2173167
68	0xbdaad6a4	-0.08341721
69	0x3eb72636	0.3577134
70	0x3e6e4864	0.23269802
71	0x3d22644a	0.039646424
72	0x3c2e467e	0.010636924
73	0x3e0a007f	0.13476752
74	0xbd993e40	-0.07482576
75	0x3d789411	0.060688082
76	0x3e6b7a96	0.22995982
77	0xbcd70b0a	-0.026250381
78	0xbcefd065	-0.029274175
79	0xbd5f6e15	-0.05454834
80	0x3def6283	0.116887115
81	0x3e0bbcbe	0.13646218
82	0x3e2ec8dd	0.17068811
83	0xbda44e26	-0.08022718

fc3.weight f4 [10, 84]
0	0xbdf0567c	-0.117352456
1	0xbcd7bfd6	-0.026336592
2	0x3dc4e127	0.09613257
3	0x3e1c083b	0.15237515
4	0xbd96beac	-0.073605865
5	0xbe06e544	-0.13173395
6	0xbdcaf24f	-0.09909498
7	0xbdf11f0d	-0.117735006
8	0x3e86648b	0.26248583
9	0xbcb8f76a	-0.022578914
10	0x3d439c2c	0.04775636
11	0x3e2ab5ba	0.16670886
12	0xbe4f9785	-0.20272644
13	0x3e1036e0	0.14083433
14	0xbe030659	-0.1279539
15	0x3e44d284	0.1922093
16	0x3dd974d8	0.10617989
17	0xbe25d150	-0.16193128
18	0xbdd93f48	-0.10607773
19	0x3d362923	0.044472825
20	0x3dbfb052	0.09359802
21	0x3dfbf942	0.123034015
22	0x3daef84c	0.085434526
23	0x3dc71560	0.09720874
24	0x3d710aae	0.058848076
25	0xbd4acb89	-0.049510513
26	0x3e2cc001	0.16870119
27	0x3e20ab4a	0.15690342
28	0xbe7777ff	-0.24166869
29	0xbc9338a2	-0.01797134
30	0x3ca2b0c3	0.019859677
31	0x3dc1d586	0.094645545
32	0xbcdb16f7	-0.026744349
33	0xbd85908a	-0.06521709
34	0xbddf2550	-0.10895789
35	0xbd03761b	-0.032095056
36	0x3e85f042	0.26159865
37	0xbd003b20	-0.031306386
38	0x3c7fa580	0.015603423
39	0x3de222ba	0.1104178
40	0x3e1abb98	0.15110624
41	0xbbbf0920	-0.005829945
42	0x3db6aa08	0.0891915
43	0x3e4d60fa	0.20056525
44	0xbd817932	-0.06321944
45	0x3e422e58	0.18962991
46	0xbdeda9cb	-0.11604651
47	0xbd24357d	-0.040090073
48	0xbe13c878	-0.14431942
49	0xbda90048	-0.08252007
50	0xbbcff1e6	-0.006345975
51	0xbd4347cb	-0.04767589
52	0x3d43696d	0.047707964
53	0x3e9173b3	0.28408584
54	0x3e93ddba	0.288801
55	0x3d6d457d	0.057927597
56	0x3e547ed0	0.207515
57	0xbdbe7ca5	-0.09301118
58	0x3b190a78	0.0023352187
59	0xbcc92ab7	-0.0245565
60	0x3d7dbf26	0.06194987
61	0x3d3f2e30	0.046674907
62	0xbdd2fbbe	-0.10301922
63	0xbe85b63d	-0.261156
64	0xbe304560	-0.17213964
65	0xbc26a5af	-0.010171338
66	0xbd49dcf2	-0.049282975
67	0x3dbb048c	0.091317266
68	0xbcd51d9d	-0.026015097
69	0x3e46085e	0.1933913
70	0x3d3b7189	0.045762572
71	0x3dea38c6	0.1143661
72	0x3dd98d66	0.10622673
73	0xbe8c115e	-0.27357
74	0xbb9d30e1	-0.0047970866
75	0xbd32c72a	-0.04364697
76	0xbe7421ec	-0.23841065
77	0x3c8ac986	0.016941797
78	0xbd38bf36	-0.045104228
79	0x3d076271	0.033052865
80	0x3c5145b1	0.012772963
81	0x3d9eaafc	0.077474564
82	0x3c58c3a3	0.013230237
83	0x3e572569	0.21010365
84	0x3e4dfe62	0.2011657
85	0x3bb026a2	0.005375699
86	0x3d83f253	0.06442704
87	0x3d81a823	0.06330898
88	0x3d84d189	0.06485278
89	0xbdea718f	-0.11447441
90	0xbdb7e2c4	-0.08978799
91	0xbe4ecf05	-0.20196159
92	0xbcffd963	-0.031231588
93	0xbdac4b56	-0.08412807
94	0xbd9e260c	-0.077221006
95	0x3c189146	0.00931198
96	0xbe80c3f1	-0.2514949
97	0x3e5b2ac4	0.21403033
98	0xbe368982	-0.17825893
99	0xbe75ce38	-0.24004447
100	0xbda5cd8f	-0.08095848
101	0xbe66aa2a	-0.2252585
102	0x3ddaf623	0.10691478
103	0x3d43eed1	0.047835175
104	0x3d9f8030	0.07788122
105	0xbe01aaf7	-0.12662874
106	0xbdb8c74a	-0.09022386
107	0x3d0aa29c	0.033846483
108	0x3c81641f	0.015794812
109	0x3cffaebf	0.031211255
110	0xbcc2e6ef	-0.023791758
111	0xbe56005c	-0.20898575
112	0x3e05ff6f	0.13085721
113	0xbe0ea634	-0.13930589
114	0xbd5a91a7	-0.05336156
115	0x3d8a1a5d	0.0674331
116	0x3d59976f	0.053122934
117	0x3d517dc1	0.05114532
118	0xbc16cd55	-0.009204228
119	0x3db0ce2e	0.08633076
120	0x3e913754	0.28362525
121	0x3cab4591	0.020907195
122	0x3c0d872d	0.008638185
123	0xbc0367f0	-0.008020386
124	0x3b599839	0.0033202304
125	0x3c3da060	0.011573881
126	0x3cba8d59	0.022772478
127	0x3dcdfd65	0.10058097
128	0xbd6f5fc6	-0.058440946
129	0x3e6ca013	0.23107938
130	0xbe774b65	-0.24149854
131	0x3ebd9b68	0.37032628
132	0xbe28fffe	-0.16503903
133	0x3ca32ee2	0.019919816
134	0xbd33d6f4	-0.043906167
135	0xbe475e56	-0.1946958
136	0x3ddb88ad	0.10719428
137	0xbde04c00	-0.10951996
138	0xbd60f10c	-0.05491738
139	0x3d270450	0.040775597
140	0x3d85be95	0.06530491
141	0xbd73d274	-0.059526876
142	0x3e4dbbcf	0.20091175
143	0xbba3e11b	-0.0050012
144	0x3cb33676	0.021876555
145	0xbd6d3180	-0.057908535
146	0xbd70320f	-0.05864149
147	0xbe80de2e	-0.2516951
148	0x3d414fe0	0.047195315
149	0x3d8a9b19	0.06767864
150	0xbd9383f5	-0.07202903
151	0xbd618606	-0.055059455
152	0xbd0f4bf5	-0.034984548
153	0xbdb505bb	-0.088389836
154	0xbe686d17	-0.22697864
155	0xbd0c961b	-0.03432284
156	0x3d1bf1da	0.038072444
157	0x3dc965c8	0.09833866
158	0x3e84fd0c	0.2597431
159	0x3eb9b2a5	0.36269107
160	0xbe885847	-0.2662985
161	0xbd907677	-0.070538454
162	0x3da2dacd	0.07951889
163	0x3b929579	0.004473385
164	0x3d393287	0.045214202
165	0x3bd4de7e	0.0064962497
166	0xbdc3a311	-0.09552587
167	0xbcd0ce5b	-0.025489023
168	0x3a4e2f7c	0.0007865352
169	0xbd9a6cc6	-0.07540278
170	0x3c96ef1b	0.018424561
171	0x3e132a09	0.14371504
172	0x3c7b9865	0.015356158
173	0x3e7c826f	0.24659131
174	0xbd1b017b	-0.03784321
175	0x3db980d6	0.09057777
176	0x3e38b8c8	0.18039238
177	0xbd142360	-0.03616655
178	0x3cc9ee93	0.024649894
179	0xbbf7ed6e	-0.0075661456
180	0x3de351eb	0.11099609
181	0xbe0bf0a5	-0.13666017
182	0x3c9eec82	0.019399885
183	0x3e755bf9	0.23960866
184	0xbc94b392	-0.018152032
185	0x3d7af959	0.061272953
186	0xbd158610	-0.036504805
187	0x3d637af0	0.055537164
188	0xbe2986a9	-0.16555275
189	0x3e73f650	0.2382443
190	0x3e5c1766	0.21493301
191	0xbbbc6d5a	-0.0057503404
192	0xbe2b8499	-0.167498
193	0x3c157554	0.0091222115
194	0x3c968243	0.01837266
195	0x3d4ad32a	0.049517788
196	0xbdf1a799	-0.11799545
197	0x3e3599ac	0.17734402
198	0x3e94360f	0.28947493
199	0xbe393a73	-0.18088703
200	0xbd362e10	-0.044477522
201	0xbd294cde	-0.041333072
202	0xbe0da3d6	-0.1383203
203	0x3c498d5b	0.012301768
204	0x3e2dd294	0.1697486
205	0xbd033ac6	-0.032038473
206	0x3d0d4e9a	0.03449879
207	0xbe62fd21	-0.22166874
208	0xbd4fd13b	-0.050736647
209	0xbc306211	-0.010765568
210	0x3d3bdc95	0.04586466
211	0xbc01853b	-0.0079053
212	0x3d8799cb	0.066211306
213	0xbd39fd16	-0.045407377
214	0x3eb42a49	0.3518851
215	0xbe25240f	-0.16127037
216	0x3d059aa3	0.032618176
217	0x3e1525cb	0.14565198
218	0xbdc7a24e	-0.09747754
219	0xbd87cb7f	-0.06630611
220	0x3df58ea7	0.119900994
221	0x3e2934ee	0.16524097
222	0x3d42fc6b	0.047604006
223	0xbdc05e24	-0.09392956
224	0x3dda4538	0.10657734
225	0xbda4358d	-0.080180265
226	0xbde7a396	-0.113104984
227	0xbdcbc1f6	-0.099491045
228	0x3d68844a	0.056766786
229	0x3b613e6d	0.0034369484
230	0x3d9b5b0e	0.07585727
231	0x3e4640ab	0.19360606
232	0xbdb99a50	-0.09062636
233	0xbdaa1e7f	-0.08306598
234	0xbd11218f	-0.035432395
235	0x3c0fac66	0.00876913
236	0xbe0ca1ee	-0.13733646
237	0x3d9d299e	0.076739535
238	0xbd34c17a	-0.044129826
239	0xbcf438c4	-0.029812224
240	0xbd979df8	-0.07403177
241	0xbd46d41b	-0.048542123
242	0x3d562e75	0.0522904
243	0xbd6cfc9d	-0.0578581
244	0xbcf9fb70	-0.030515403
245	0xbdd4d2eb	-0.10391792
246	0x3d5decfa	0.054181077
247	0xbdcb090f	-0.09913837
248	0x3cee735e	0.029107746
249	0xbdaafb8a	-0.083487585
250	0x3c34567d	0.011006949
251	0xbe4f8e25	-0.20269068
252	0xbdac5a65	-0.08415679
253	0x3d6e422e	0.058168583
254	0xbd7519e1	-0.059839133
255	0x3d3ac93d	0.045602072

fc3.bias f4 [10]
0	0xbdc1625a	-0.09442587
1	0xbf17a4c4	-0.5923579
2	0x3eaa10be	0.33215898
3	0x3e9f11b6	0.310682
4	0x3ecfb953	0.4057108
5	0xbe6b8889	-0.23001303
6	0x3e190927	0.14944898
7	0xbebdc991	-0.37067845
8	0x3ec207b4	0.37896502
9	0xbeb81c8b	-0.35959277
